树莓派代码及模型/activity_model/model.onnx (onnx, 52130 bytes, 16 tensors)

linear_0.w_0 f4 [7, 128]
000000 b1 42 45 3e f2 bc 59 3d 40 fe 86 bc 09 cb aa bd
       0.19263722 0.053158708 -0.016478658 -0.08339507
000010 d0 e7 2d bd b9 87 1d be 0b 8a 5d 3d 8c 4f 90 3b
       -0.0424574 -0.15383805 0.054086726 0.004404014
000020 f1 7d 28 be bb dd 11 3e 78 63 16 bd ab 43 06 be
       -0.16454293 0.1424474 -0.036715955 -0.13111751
000030 50 01 ba bd a7 d7 ad 3d 6b 1c 24 3d a2 d1 20 be
       -0.090822816 0.08488398 0.040066164 -0.15704969
000040 44 3f 34 3e e7 63 ca bd 87 bf 40 3e 55 50 81 3e
       0.17602259 -0.09882336 0.18823062 0.252566
000050 6e 78 8c bd 87 02 47 be 93 a3 c7 bd 2b ef 6e be
       -0.06858908 -0.19434558 -0.09747996 -0.23333423
000060 b5 79 99 3d b9 fc 7c be 8e 74 06 bd 9e e6 00 be
       0.07493917 -0.24705781 -0.032826 -0.12587973
000070 1a 6a b4 bd a9 18 31 3e 7a df 0f 3e eb 87 db 3d
       -0.088093 0.17294563 0.14050093 0.10719284
000080 c2 70 3f 3e 2f ea a1 3d 0e 42 41 3e 89 1b d0 3d
       0.18695357 0.07905995 0.18872854 0.10161502
000090 ee 9d 3b be e6 c3 b9 bd 25 1b 22 be 41 32 3e 3d
       -0.18321964 -0.09070568 -0.15830667 0.046434645
0000a0 c2 e0 ba 3d 2b b4 e9 bc ce a7 47 3e 16 21 bb 3d
       0.091249004 -0.028528294 0.19497606 0.0913717
0000b0 56 0e 35 bd 6b d4 0c bd f9 61 9d 3d 53 43 ac 3c
       -0.044203125 -0.034382265 0.076847024 0.021028196
0000c0 f4 cf 03 3e 80 9d 3a be d6 01 51 3e f2 e4 ec 3d
       0.12872297 -0.18224144 0.20410857 0.11567105
0000d0 e1 c7 5c 3e 56 68 63 3e 4f 69 4b bc 35 df 9d b9
       0.21560623 0.2220777 -0.012415244 -0.00030111676
0000e0 cb bb 5f be 33 2c 4d 3e 7b 34 b2 bc b5 33 86 3c
       -0.21848981 0.20036392 -0.02175354 0.016382078
0000f0 d2 d1 10 3d 8c af 69 3d 65 c9 6e 3e a2 5c 10 be
       0.03535635 0.05705218 0.23319013 -0.14097837
000100 59 75 b1 bd 33 cc 3d 3e e3 de 83 3e 31 69 0a be
       -0.086649604 0.18534927 0.25755987 -0.1351669
000110 31 53 c3 3d b8 99 ce 3d f4 3a ab bd e0 94 3a be
       0.09537352 0.10087913 -0.08360854 -0.18220854
000120 49 02 60 be 94 e4 78 be de 94 82 bd ee cf 80 bc
       -0.21875872 -0.24305946 -0.063760504 -0.015724149
000130 f9 c0 b0 3d 3f 2d 23 3e 73 a3 2f be 2d 04 30 3e
       0.086305566 0.15935229 -0.17152195 0.17189093
000140 4c fb 6b 3e 7a 73 86 bc 26 8b aa 3c 1a aa 2e 3e
       0.23045081 -0.016412485 0.020818304 0.17057076
000150 b7 a5 5c be bb 90 f0 3d 5a dd 3a 3d c5 b8 0e bc
       -0.2154759 0.11746355 0.045621254 -0.008711045
000160 41 9a f6 3d fe 75 25 be e0 db 3b 3e 7e c6 86 be
       0.1204114 -0.16158292 0.18345594 -0.26323313
000170 7e d0 2b 3e 1d 8b 21 be 6c 14 44 3e c0 e0 2c 3e
       0.16778752 -0.15775724 0.19148415 0.1688261
000180 82 f1 16 bc 91 9d 15 be a1 41 26 be a1 eb 63 be
       -0.009212853 -0.14610888 -0.16235973 -0.22257854
000190 29 c0 98 be 7b 47 ac 3b 8f 6d da bb bc 7f 8a 3d
       -0.29834107 0.0052575446 -0.0066658924 0.06762645
0001a0 d7 c1 31 be 98 06 71 be 62 14 08 be d3 37 af 3c
       -0.173591 -0.23537672 -0.13289025 0.021388924
0001b0 54 72 32 bb 61 f6 be bc 7b 1c 57 3e 80 42 71 3d
       -0.002722879 -0.023310842 0.21006958 0.05890131
0001c0 e0 37 96 bd 04 be 44 be f4 7d 75 3d 4a dc 05 3e
       -0.07334876 -0.1921311 0.05993457 0.13072315
0001d0 a2 73 13 be 1e e5 85 bd 18 10 45 bd de b7 5c 3d
       -0.14399579 -0.06537841 -0.04811105 0.053886287
0001e0 e5 88 44 3e 9f c8 9c bd 2f 74 18 3e 05 e2 25 be
       0.19192846 -0.07655453 0.1488807 -0.16199501
0001f0 1d 0c d6 3c e9 c5 18 3d 00 dd 7f 3d 7f ab 42 3d
       0.026128823 0.037298117 0.06246662 0.047526833
000200 b9 79 56 be d4 7d 81 3e 39 bf e1 be c8 7e a8 be
       -0.20944871 0.25291312 -0.44091204 -0.32909226
000210 16 17 12 be 87 db e9 3d c0 e5 13 be 87 56 6d 3e
       -0.14266619 0.11418825 -0.14443111 0.23177539
000220 97 d9 0a be 51 de 39 be 91 d8 06 3e cb 39 80 3e
       -0.13559566 -0.18151213 0.13168551 0.25044093
000230 30 a7 aa be 85 f6 86 3d 9f 7d 9d be a7 9c 02 3e
       -0.3333068 0.065899886 -0.30759904 0.1275507
000240 72 aa e6 3d 40 84 69 be 6a 2a 77 3e 9f ab dd 3c
       0.112629786 -0.22804356 0.24137273 0.027059374
000250 be c6 b9 be a8 a5 cb bd f3 8b 73 be 58 ef 45 3e
       -0.3628444 -0.09943706 -0.23783855 0.19329584
000260 92 67 fb bd 80 59 11 bd 52 80 4e be 3a 54 a4 be
       -0.12275614 -0.035485744 -0.20166138 -0.3209551
000270 ee 86 d4 3d 6b 84 4d 3e a0 23 8c 3d 7c cc 9a 3d
       0.10377298 0.20070045 0.068427324 0.075585335
000280 56 c5 34 be 29 b4 20 be a7 1b 29 bc 4c 12 0b be
       -0.17653403 -0.15693726 -0.010321534 -0.13581198
000290 87 15 83 be c5 50 45 be 5e 2e 7d be cb 3c 50 be
       -0.25602362 -0.19269092 -0.24724719 -0.2033569
0002a0 bd d6 af 3d b5 aa 68 3e ac 76 fe 3d 6d 26 35 3e
       0.0858588 0.2272137 0.124249786 0.1769044
0002b0 c5 d2 c3 3d 58 8e 8a bd 3f e9 6d be 83 a8 57 3e
       0.095616855 -0.06765431 -0.23233508 0.21060376
0002c0 12 10 87 3e 67 ba 0f bc c8 12 05 3e de 92 25 bd
       0.26379448 -0.008772469 0.12995446 -0.040423267
0002d0 8b 0a 88 3d 77 23 7d bd 5b e7 55 3e be f1 60 3e
       0.06642636 -0.0618014 0.20889036 0.21967217
0002e0 f6 a8 51 be 24 c1 25 be cd 7c 84 be c4 ca 5f 3e
       -0.2047461 -0.16186959 -0.25876465 0.21854693
0002f0 a5 ad 66 3d 53 6d 6f be da 14 14 3e c0 90 0e be
       0.056317944 -0.23381548 0.14461079 -0.13922405
000300 2e 36 6d 3e be d3 69 be 20 8f 65 3d ce d4 b3 bd
       0.23165199 -0.2283468 0.056044698 -0.08780824
000310 25 e5 fe bd 9b 86 af be 2a 36 8c 3d ef 4b 05 3d
       -0.124460496 -0.34282383 0.068462685 0.03254312
000320 be f0 0e be 1d fa e0 3d 22 02 5f 3e 0b 1e ba 3e
       -0.13959023 0.10985205 0.21778157 0.36351046
000330 6b 60 2a bc 98 bb 82 3d ab ed 45 bd d4 48 41 3e
       -0.010398964 0.06383437 -0.04832236 0.18875438
000340 33 86 aa 3d d1 c2 d5 bd e8 8e 0e 3e e5 e4 1b be
       0.08326378 -0.10437549 0.13921702 -0.15224035
000350 65 35 96 3d cd d9 94 bd b6 cb a9 3e e7 60 0b 3c
       0.07334403 -0.07268105 0.33163232 0.00850699
000360 4a 25 91 3b 77 2f 91 3d ad 67 9b bd 70 c7 d8 3c
       0.004429494 0.07089131 -0.07588134 0.026462287
000370 72 dd 89 bd 62 ab 60 be 24 24 4f 3e 73 37 fd 3e
       -0.067316905 -0.21940377 0.2022863 0.49456367
000380 24 a2 5f 3b b9 71 ec 3d c7 ee d5 bd 07 ad 51 bd
       0.0034123743 0.115451284 -0.10445934 -0.051190402
000390 65 87 c9 3b 31 84 cb 3c 11 8f 18 be b3 72 0b bc
       0.0061501735 0.024843307 -0.14898326 -0.008511233
0003a0 c2 68 3e bc b5 11 42 be 52 ef fe 3d b8 13 85 be
       -0.011621656 -0.18952067 0.124479905 -0.25991607
0003b0 5e 3c c6 bd 4f c7 49 bd df 69 18 bd 80 c3 92 be
       -0.09679483 -0.04926234 -0.03721034 -0.2866478
0003c0 aa e6 74 3d f2 20 0a 3a 18 7f 43 3e fe 37 09 3e
       0.05979029 0.00052691915 0.19091451 0.13400266
0003d0 60 c4 09 be 52 4e 59 3e 3d 69 2a 3d 3f 03 88 3d
       -0.13453817 0.21221283 0.04160427 0.06641244
0003e0 a3 59 90 3d 44 65 b8 be 16 26 87 be 8f 7e 56 be
       0.07048347 -0.3601476 -0.26396245 -0.20946716
0003f0 34 af 19 be fd 10 11 be 41 b9 5c be c8 b0 50 be
       -0.15008241 -0.14166637 -0.21555044 -0.20379937

linear_0.b_0 f4 [128]
000000 39 3b 3a bd 1b b8 dc 3b b8 99 25 3c b5 45 b0 3b
       -0.045466635 0.0067358143 0.01010745 0.0053794035
000010 69 59 a9 bc 1e 83 34 bc 35 80 25 bd aa b2 6b 3c
       -0.020672517 -0.011017589 -0.04040547 0.014385859
000020 b2 d8 7b bc 57 7e 8f bc 89 96 f9 3b 74 6e d4 3c
       -0.015371488 -0.017516298 0.007616822 0.025931574
000030 58 3c f5 bb 9f eb 3b bc ba 43 52 bc 81 0b fc 39
       -0.007484 -0.011469751 -0.01283353 0.00048073757
000040 44 ec cc 3b 8b 6c 23 bb 30 75 b6 3c c8 37 1d bc
       0.006253751 -0.0024936523 0.022272676 -0.009595819
000050 c9 3c d9 ba 1d 10 d1 3b 8b 86 92 bc d7 40 96 3b
       -0.0016573902 0.0063800947 -0.01788642 0.004585366
000060 eb ce b8 bc c1 3b cc 3b 37 ef 10 3c ec 4e 18 bd
       -0.022559604 0.006232709 0.008846096 -0.03718464
000070 9d d6 df bc 7a 9c 20 3d 6c 3d c3 ba f4 d5 49 bc
       -0.027324015 0.039211728 -0.0014895624 -0.012319077
000080 75 3b 0d 3c ee 42 92 3c 5a b3 52 3c 53 7d e1 39
       0.008620133 0.01785418 0.012860144 0.00043008718
000090 b0 08 bd 3c cf d1 dd 39 60 5c 01 3c 2f da 2f 3b
       0.023075432 0.00042308724 0.007895559 0.0026832928
0000a0 af 02 f8 bb d4 8c 33 bc af 1c 83 3c 1b bd 9b 3c
       -0.0075686793 -0.010958869 0.016004888 0.019011071
0000b0 50 b4 87 bc 9c 12 c2 bc e5 c6 ca 3c c6 94 8a bb
       -0.016565472 -0.023690514 0.024753043 -0.004229161
0000c0 ab 65 01 bb a7 02 94 3b 2d 28 01 3d 8f 74 d9 bc
       -0.0019744437 0.0045169177 0.031532455 -0.026544837
0000d0 84 ae f8 bb 97 3a 96 3b 83 fe e8 3b cd d2 c4 3a
       -0.0075891633 0.004584621 0.0071104183 0.0015016437
0000e0 0d e4 41 bc f1 92 f4 3b 8d e3 ee 3b d5 7a 00 bd
       -0.011834157 0.007463806 0.0072903098 -0.03136714
0000f0 13 c7 d8 bb 42 42 23 bc d1 9a d0 3c c9 03 56 bc
       -0.0066155284 -0.009964528 0.025464447 -0.013062426
000100 9e 3b f8 3b a5 0d cd 3b 9a 50 b5 3c cf be 31 3b
       0.0075754663 0.00625773 0.02213316 0.0027121787
000110 3a 60 89 bc 7f 61 5a bc 82 e5 0a 3b 7b 8a cb bc
       -0.016769517 -0.013328909 0.0021193926 -0.024846306
000120 dd 98 d3 bb a6 95 db 3b d7 60 85 bb 9c e2 da 3b
       -0.0064574317 0.006701189 -0.004070382 0.006679846
000130 4f ac 74 bc 57 0e 22 3c fa d5 11 bc 94 14 08 bb
       -0.01493366 0.009891114 -0.008901114 -0.0020764219
000140 a1 45 68 bc 5a b6 94 3c 19 99 19 bc 0d da 07 bb
       -0.014176757 0.018153358 -0.00937488 -0.0020729334
000150 ea 3a dc bc be 1c bd 3b a7 d5 32 ba 27 24 3e 3d
       -0.026883561 0.0057712486 -0.0006821998 0.046421196
000160 67 e6 13 ba 44 a3 59 3c c2 75 04 3c 7a 57 2a 3c
       -0.00056419376 0.013283554 0.008084716 0.010396833
000170 ce ae 1c bc d7 44 0f 3d 06 97 03 bd fd 15 f6 39
       -0.009563161 0.03497776 -0.03212645 0.0004693716
000180 b6 06 c9 bb 2e 5d 35 3c 9a 53 03 3b 12 5f 52 bc
       -0.006134833 0.011069579 0.0020038844 -0.012840049
000190 03 14 a8 bb 31 99 29 bc 90 cb 87 bb f7 bc 59 3c
       -0.0051293387 -0.010351465 -0.0041441396 0.013289682
0001a0 62 bd 9f ba a1 39 13 3c 6f 83 dc bb e6 ff 6f bc
       -0.0012187178 0.008985908 -0.0067295353 -0.014648413
0001b0 8a 2c 35 bb 9d 9b 75 3c ae 08 e8 ba 38 49 f2 39
       -0.0027644956 0.014990714 -0.0017702782 0.0004621239
0001c0 92 9a 38 bc 76 d2 ec bb 9f 71 3d 3c e7 9b 21 3c
       -0.011267321 -0.0072272373 0.011562734 0.00986383
0001d0 54 2a 14 3d fd 29 c3 bb 3c 63 50 bd d2 56 75 3b
       0.03617318 -0.005955933 -0.050875887 0.0037435782
0001e0 a9 6a 04 bd b4 89 91 bc 89 47 bc bc 09 5d da ba
       -0.03232828 -0.017765857 -0.02298333 -0.0016659807
0001f0 64 70 f9 bc fc 4f dc 3c 09 4d 92 3c 8e 98 fd 3b
       -0.0304491 0.026893608 0.017858999 0.007739133

batch_norm1d_0.w_0 f4 [128]
000000 75 f6 7e 3f 43 7d 74 3f d7 a0 63 3f c8 ad 7a 3f
       0.99594814 0.95503634 0.889173 0.9792142
000010 50 36 80 3f b5 cc 78 3f eb af 58 3f cd 45 6c 3f
       1.0016575 0.9718736 0.8464343 0.9229401
000020 8c d4 39 3f d5 eb 60 3f 29 69 83 3f 1f ea 57 3f
       0.72589946 0.8785985 1.0266467 0.84341615
000030 72 d2 5f 3f 4f 21 88 3f a6 9d 65 3f 5b c2 80 3f
       0.8743049 1.0635165 0.8969368 1.0059313
000040 ef 5f 6d 3f 45 7a 8a 3f 26 f8 7e 3f 4a 03 66 3f
       0.9272451 1.0818564 0.99597394 0.8984877
000050 12 cd 4d 3f c0 a3 60 3f c0 bf 25 3f 84 d0 87 3f
       0.8039104 0.8774986 0.6474571 1.0610509
000060 61 d1 48 3f 20 23 5b 3f e4 6a 55 3f c7 c6 64 3f
       0.78444487 0.8560047 0.8336623 0.8936581
000070 5f 54 52 3f 09 74 72 3f 9c 77 85 3f 42 e0 76 3f
       0.8215999 0.94708306 1.0427127 0.9643594
000080 b1 00 87 3f b9 8e 8f 3f 74 81 84 3f d2 42 7f 3f
       1.0547086 1.121543 1.0352006 0.99711335
000090 c9 d3 5c 3f 9b 27 3a 3f 21 2d 5c 3f 97 ec 3f 3f
       0.8626066 0.72716683 0.8600636 0.7497038
0000a0 09 87 57 3f 20 6a 71 3f a6 5c 83 3f e2 ab 7e 3f
       0.8419042 0.9430256 1.0262649 0.9948102
0000b0 31 64 6b 3f 2c b6 84 3f eb dc 48 3f 23 66 59 3f
       0.91949755 1.0368094 0.78462094 0.84921473
0000c0 cb af 59 3f bc 65 65 3f 60 a6 76 3f 61 a5 6b 3f
       0.85033864 0.8960836 0.9634762 0.92049223
0000d0 a3 f0 7e 3f 29 d1 90 3f 20 ad 68 3f 3a 9a 74 3f
       0.9958593 1.1313831 0.9088917 0.9554783
0000e0 a3 f5 3f 3f 8d 94 6c 3f 17 13 8e 3f 87 41 53 3f
       0.74984187 0.9241417 1.1099576 0.8252186
0000f0 c3 ae 56 3f 31 01 7c 3f fa d4 87 3f cc cd 52 3f
       0.83860415 0.9843932 1.061187 0.8234527
000100 2a fe 5f 3f db 28 91 3f 4d c5 72 3f bd e5 59 3f
       0.874972 1.1340593 0.9483231 0.8511618
000110 20 d6 83 3f d5 bf 6d 3f d0 06 41 3f 84 12 83 3f
       1.0299721 0.9287084 0.7540102 1.0240026
000120 4f ac 24 3f 26 1f 47 3f 09 c2 5e 3f b6 54 56 3f
       0.6432542 0.77781904 0.87014824 0.8372301
000130 36 4d 86 3f 5a da 5c 3f 12 9e 63 3f a9 b9 72 3f
       1.0492313 0.8627068 0.8891307 0.94814545
000140 5d 63 83 3f 63 66 76 3f 10 b4 67 3f da 54 44 3f
       1.0264698 0.9624998 0.9050913 0.76691973
000150 75 6e 5b 3f ea b6 63 3f 07 1c 67 3f ed ca 85 3f
       0.8571542 0.8895098 0.9027714 1.0452553
000160 ff f8 57 3f 8a fd 78 3f 07 20 57 3f 1d 5a 67 3f
       0.8436431 0.9726187 0.84033245 0.90371877
000170 84 08 77 3f aa 27 3a 3f 83 fa 85 3f fc a1 72 3f
       0.9649737 0.7271677 1.0467075 0.9477842
000180 75 46 43 3f 3a b9 5b 3f 61 2e 55 3f 1a 1b 57 3f
       0.76279384 0.8582951 0.83273894 0.8402573
000190 32 77 57 3f 6b 3b 46 3f 7e 51 56 3f 3f 2d 85 3f
       0.8416625 0.77434415 0.837181 1.0404433
0001a0 c1 f4 45 3f c2 c7 83 3f 0a 7a 66 3f f0 71 60 3f
       0.7732659 1.0295336 0.90029967 0.87673855
0001b0 7b 90 78 3f 5b f0 53 3f 58 cf 63 3f 05 1f 4e 3f
       0.9709546 0.8278863 0.88988256 0.8051608
0001c0 5b 07 7f 3f f1 19 32 3f b5 14 6f 3f 48 0a 5a 3f
       0.996206 0.69570833 0.9339097 0.8517194
0001d0 51 43 73 3f e7 84 55 3f f9 47 8d 3f 70 8b 8e 3f
       0.9502459 0.8340592 1.1037589 1.1136303
0001e0 ac 2a 4b 3f 2f 95 2b 3f 47 00 4f 3f 7e 3f 5d 3f
       0.7936199 0.6702451 0.808598 0.86425006
0001f0 89 b8 79 3f 65 7c 4f 3f 09 a5 86 3f 6e b6 8a 3f
       0.97547203 0.81049186 1.0519115 1.0836923

batch_norm1d_0.b_0 f4 [128]
000000 fd 93 91 be cd b5 7d 3e 95 dc 16 3e 13 d5 3e be
       -0.2843322 0.24776383 0.14732583 -0.18635969
000010 e3 03 9d be 94 e9 36 bf da 52 89 bd bc c4 21 bf
       -0.30667028 -0.7145016 -0.06705256 -0.6319082
000020 cd c3 81 3e 06 7a ab be d8 d6 08 bf 65 43 00 3e
       0.25344697 -0.33491534 -0.53452826 0.12525709
000030 2a 3c 76 3e a6 cf aa be 20 ca 3a 3d 26 3c 40 bf
       0.24046388 -0.33361548 0.045602918 -0.7509178
000040 ae 6e 22 be 25 d8 e4 be f4 53 08 3e 51 1e 7f be
       -0.15862533 -0.44696155 0.13313276 -0.24913909
000050 27 68 62 3e 69 47 59 bf 30 78 42 3e cc 75 03 bf
       0.22110043 -0.8487459 0.1899116 -0.5135162
000060 72 54 bb 3d 64 49 50 3d 58 82 a2 bd 6d 4c 40 3e
       0.09146966 0.05085124 -0.07935017 0.18779154
000070 2d 39 bf be 7b 0f a6 3d 3b d4 73 be d6 b2 f4 bd
       -0.3734831 0.081084214 -0.23811428 -0.11948173
000080 8e 9b de be cd 10 33 be c5 4f 01 bf 1d 1d eb 3d
       -0.43478054 -0.17486878 -0.50512344 0.11480162
000090 cf 47 c1 3d a2 d6 e1 bd 01 77 ee 3d cd 65 1a 3e
       0.094375245 -0.11027266 0.11643792 0.15077896
0000a0 79 6c 40 bf 03 4c 5f 3d 4a db 35 be bf d8 3b 3c
       -0.75165516 0.05451585 -0.17759433 0.0114652505
0000b0 35 88 0f be 53 3e ba be 19 62 33 bd 9d a3 62 bd
       -0.14016803 -0.36375675 -0.043794725 -0.055331815
0000c0 28 c3 8b 3e e2 15 b8 bd c7 5e 5f be 62 e6 93 be
       0.2729733 -0.08988549 -0.21813498 -0.28886706
0000d0 66 9a 3d 3a ca 5f 07 bf d8 a6 d0 3b 85 20 82 3e
       0.0007232785 -0.5288054 0.0063675456 0.25415435
0000e0 46 c4 0a be 5b 48 da bd 46 04 e9 bd 5a 92 48 3e
       -0.13551435 -0.10658332 -0.11377768 0.19587079
0000f0 60 c3 a2 bd db 4b 1b be 75 27 a2 be f6 7c 89 be
       -0.07947421 -0.15165655 -0.31670728 -0.2685315
000100 59 43 ad bd f6 70 8c be 8d 1c 01 be 51 7d a3 bd
       -0.08460111 -0.27429932 -0.12608548 -0.079828866
000110 5c 06 a8 be 88 63 25 3e 05 d9 93 bd 8a 04 0f bf
       -0.32817352 0.1615125 -0.072191276 -0.558663
000120 e6 fd 1f 3e 8a 51 7a 3d 63 97 82 be 73 a8 24 3e
       0.15624198 0.061112918 -0.25506124 0.16079883
000130 e7 73 f2 be 00 e0 f4 3b e3 fe d9 be b4 69 6b 3e
       -0.4735405 0.007472992 -0.42577276 0.22989541
000140 90 01 2b bd ec bb 06 bf e1 d0 12 3e 3e 9f 88 bd
       -0.041749537 -0.52630496 0.14337493 -0.06670998
000150 bd 3e 17 be 49 5c 10 be 61 db 86 3e 71 a8 05 bf
       -0.14770027 -0.14097704 0.26339248 -0.52210146
000160 8e ff af be 11 78 a1 be f9 91 fe be 28 92 8c be
       -0.3437466 -0.31536916 -0.49720743 -0.27455258
000170 44 3d 9f be f2 cb 45 3e 3d 3f 93 be 62 65 93 3d
       -0.3110143 0.1931608 -0.28759184 0.071970716
000180 35 bd 2e bf 9f f0 5d bf 68 a0 87 be 0f 92 c1 bc
       -0.68257457 -0.86695284 -0.26489568 -0.023629216
000190 38 55 f9 3c 26 54 1f bd 68 ed 6e be fa 0a 3a 3d
       0.030436143 -0.03889861 -0.23332751 0.045420624
0001a0 11 c2 c1 bd e6 16 e8 be a1 ff 51 be 2f c1 0d 3d
       -0.09460843 -0.4532997 -0.20507671 0.034608062
0001b0 78 f2 b0 be 6a 69 5a bf da a7 a5 bd 32 14 42 3e
       -0.3455999 -0.853171 -0.08088656 0.18953016
0001c0 8d 54 25 bf 6d 3e 79 3d 9e 8d 6a be 30 4e 19 be
       -0.6458214 0.06085055 -0.22905585 -0.14971232
0001d0 20 ed 43 be 40 7d d4 3d e4 d8 a5 be df 8f 9b be
       -0.19133425 0.10375452 -0.32392037 -0.30383202
0001e0 5c 54 82 3d 5c 10 4e 3e 71 e5 3c 3e 98 2c ba be
       0.063637465 0.20123428 0.184469 -0.36362147
0001f0 2a f0 bc be 3c f1 3c 3e 50 c1 0d be 81 1e 1c bf
       -0.3690198 0.18451399 -0.13843274 -0.60984045

batch_norm1d_0.w_1 f4 [128]
000000 ac 79 2d bd f8 88 b5 bb 58 89 dc 3c 34 b5 9a 3c
       -0.042352363 -0.0055400096 0.02692096 0.018885233
000010 f5 6e ae bc 22 94 4f bc b6 d4 02 bd 5a c1 3a 3c
       -0.021293143 -0.012669595 -0.03194114 0.011398638
000020 9c 6d b9 bb 72 b1 88 bc 80 88 f6 ba 32 36 55 3c
       -0.0056588184 -0.016686175 -0.0018808991 0.013013409
000030 cc 43 d2 3b 8c 30 94 bc 00 a0 37 bb c0 2c 38 ba
       0.0064167734 -0.018089555 -0.0028018951 -0.0007025711
000040 0e 4e 64 3b 90 16 50 3a f0 9e 30 3c f2 63 f0 bb
       0.0034836563 0.00079379324 0.010780081 -0.007336133
000050 d2 ad 07 3c 52 12 57 3c 38 78 67 bc 68 75 bd 3a
       0.008281188 0.0131269265 -0.0141277835 0.0014454545
000060 ec 4c 84 bc 68 33 9d 3a ce 31 81 3c 34 be dc bc
       -0.01614996 0.001199347 0.015770819 -0.026946165
000070 4b 92 c4 bc 05 48 01 3d 60 1e a6 3b 95 06 67 bc
       -0.02399554 0.031562824 0.005069539 -0.01410069
000080 08 03 79 3b d0 ad 8f 3c 3c e3 e8 3b 5a 33 ab 3b
       0.0037996192 0.017538935 0.0071071666 0.0052246274
000090 16 0c 09 3d cf 7e e3 3b 14 45 b3 3c 80 ff 5c 3c
       0.03345879 0.006942607 0.021883525 0.01348865
0000a0 b8 c5 02 bc f8 6b 8d bc 12 e2 17 3c 90 8e c7 3b
       -0.00798171 -0.017263398 0.009270208 0.006089993
0000b0 3e fd 8c bc 3e ec c6 bc f2 a6 fa 3c cb c3 19 bc
       -0.017210599 -0.02428257 0.030597184 -0.00938506
0000c0 c1 67 28 bc 30 4b b7 ba 87 ac 10 3d 5f 07 ed bc
       -0.010278643 -0.00139842 0.035320785 -0.028934179
0000d0 b2 ae 2f bc 7e 92 0b 3c bc b5 80 bb dd c7 07 bc
       -0.010722803 0.008518813 -0.0039279144 -0.008287397
0000e0 98 3b c9 bb 49 f4 4b 3c a6 77 91 3c 64 0b 27 bd
       -0.0061411373 0.012448379 0.017757248 -0.040782347
0000f0 90 ff 7b bb 80 a2 42 bb 5b a4 b5 3c 9c 82 c1 bb
       -0.0038451888 -0.0029698908 0.022173097 -0.0059054624
000100 e0 21 2c ba fa 51 7a 3c 24 00 ca 3c 81 35 95 3b
       -0.0006566327 0.015278334 0.02465827 0.0045534973
000110 7e 41 c9 bc a0 6b 33 ba a3 68 35 3c 98 a0 00 bd
       -0.024567362 -0.00068443455 0.011072311 -0.031403154
000120 e8 86 f7 bb 58 08 a7 3a 9d cf 39 bc a8 ea 97 bb
       -0.007553924 0.0012743575 -0.011341003 -0.0046361275
000130 8e 36 4e bc dc ea 53 3c a0 92 f6 bb 6a 79 23 bc
       -0.012586249 0.012934413 -0.0075248033 -0.009977678
000140 f5 2d 5b bc cc d7 82 3c 0c 8b 8c bc 5c 1d 40 3b
       -0.013377656 0.01597204 -0.017156146 0.0029314375
000150 fd 81 fe bc 68 d4 d4 3a 18 21 68 bc 1e 92 3e 3d
       -0.031067843 0.0016237618 -0.014168046 0.046526067
000160 d8 71 81 3b 64 0e a6 3b 98 d5 44 3c b0 4a c3 3b
       0.003950339 0.0050676335 0.012013815 0.005959831
000170 80 12 e6 ba 62 b4 37 3d 02 b0 1a bd 6e a6 63 bc
       -0.0017553121 0.04484976 -0.03776551 -0.01389466
000180 08 f6 28 bb 2c 4d 6c 3c 00 79 86 3b 21 a4 42 bc
       -0.0025781412 0.014422696 0.00410378 -0.011879952
000190 be 44 1e bc 74 da da bb 9b 94 39 bb d4 83 28 3c
       -0.009659944 -0.0066788737 -0.0028317336 0.0102853365
0001a0 a4 30 e8 3a 12 08 67 3c 4b 64 43 bc a8 1b 2c bb
       0.0017714691 0.014101045 -0.011925767 -0.0026261602
0001b0 7c a3 6b 3b 92 35 99 3c 92 0d 99 ba 62 cb 95 3c
       0.0035955599 0.018702302 -0.0011677018 0.018285457
0001c0 3e ff 71 bc 89 00 39 bc 98 2f 73 3b e9 d8 06 3c
       -0.014770327 -0.0112916315 0.0037107226 0.008230426
0001d0 ea f5 1f 3d 72 4e 81 bc 11 6c 4d bd 70 f8 1c ba
       0.03905288 -0.015784476 -0.05015189 -0.0005987948
0001e0 2f ab 18 bd f0 ad b2 bb 0c c8 41 bc 50 c2 df 38
       -0.03727263 -0.005452864 -0.01182748 0.00010669662
0001f0 33 8d ec bc ac df 16 3d d3 d3 8e 3c 46 dc 41 3c
       -0.028875923 0.036834404 0.01743499 0.011832302

batch_norm1d_0.w_2 f4 [128]
000000 f6 d0 ed 3d e5 a0 3d 3e ae f5 bc 3e c4 5b 6b 3e
       0.11612122 0.18518408 0.3690619 0.22984225
000010 fd 62 76 3c 12 78 51 3e eb 28 c9 3d 84 60 0b 3e
       0.015038249 0.2045596 0.098222576 0.13611037
000020 26 6a ed 3d 2a 1d f6 3b de 52 a7 3e 52 6f 6c 3e
       0.11592512 0.007510801 0.3268041 0.2308934
000030 49 a5 82 3e 76 90 00 3e ad ca 21 3e 71 c5 a1 3e
       0.25516728 0.12555107 0.15799971 0.31595948
000040 a3 0a 07 3e 08 88 0b 3e 3c 78 20 3e a0 13 c7 3d
       0.13187651 0.1362611 0.15670866 0.0972054
000050 c8 38 0f 3e e7 d5 01 3e e9 fd 8d 3d 50 d4 3c 3e
       0.13986504 0.12679254 0.06933195 0.18440366
000060 d3 98 89 3d 53 48 0c 3e f7 75 95 3e 14 9c 10 3e
       0.06718602 0.13699464 0.29191563 0.14122039
000070 3a 54 d9 3d 06 8c 95 3d ef b2 14 3e 36 1f 79 3d
       0.10611768 0.07302098 0.14521383 0.06082078
000080 e5 e9 d9 3d 6f cb 16 39 7f 6a 9a 3d a0 55 5e 3e
       0.10640315 0.000143809 0.07539844 0.21712351
000090 69 84 1c 3e a2 1a 10 3e 69 cf 94 3e 3c 57 39 3e
       0.15284885 0.1407266 0.2906449 0.18099684
0000a0 dd cf 6d 3e 83 8c 7e 3d 3a 43 ce 3d 25 a3 84 3e
       0.23223825 0.06214572 0.10071416 0.2590572
0000b0 5e 5b 71 3d 37 7d 88 3e 57 5e 9a 3d e7 9a 0b 3e
       0.058925025 0.2665803 0.07537525 0.1363331
0000c0 2b 6d b0 3d be da 60 3e 78 71 dd 3d bd 7b e1 3c
       0.08614572 0.21958444 0.10812658 0.027524823
0000d0 15 f5 e8 3d 51 9e c0 3d e6 bd 69 3e d1 f6 f7 3d
       0.11374871 0.094051965 0.22826347 0.12107623
0000e0 5e 75 ef 3d f4 a7 22 3d 6b a2 28 3e 8e 43 f6 3d
       0.11692308 0.039710954 0.16468208 0.12024604
0000f0 0c 60 91 3e 48 31 a7 3d 11 0b c7 3c 16 57 41 3e
       0.2839359 0.081636965 0.024297269 0.18880877
000100 f6 46 59 3e b9 eb 6f 3e 44 6e b6 3d f4 6a b5 3d
       0.21218476 0.23429765 0.0890775 0.0885829
000110 22 c4 45 3e 3d 4d 84 3e ea af ec 3d a9 14 35 3e
       0.193131 0.25840178 0.115569904 0.17683662
000120 65 7e ad 3d b0 e3 85 3e 7e 73 54 3e 4e 84 31 3e
       0.084713735 0.26150274 0.20747182 0.17335626
000130 51 21 9d 3d 00 ed e4 3e 70 1c 8d 3d b7 a8 99 3d
       0.0767237 0.44712067 0.0689019 0.07502883
000140 1b 57 8f 3d 84 69 77 3d 57 23 b3 3d 9a c2 49 3d
       0.06999036 0.060403362 0.08746975 0.049257852
000150 6e 3e 10 3e 4d ff 79 3d 74 ac 72 3e 99 11 27 3d
       0.14086315 0.06103449 0.23698598 0.040788267
000160 a4 f1 6e 3e 64 76 cd 3e 0f 2e 4c 3e 15 a5 58 3e
       0.23334366 0.40129387 0.19939445 0.21156724
000170 44 9f 70 3e bf ef ff 3d f9 e5 87 3d cd c8 7a 3e
       0.23498255 0.124969 0.06635661 0.24490662
000180 ba 7b 82 3e 7a 7f 78 3e 9f 26 84 3d 37 2a 97 3d
       0.2548502 0.24267378 0.06452679 0.07381099
000190 8d 43 63 3e 67 5c da 3d cc 79 2d 3d 6d 48 e9 3d
       0.22193737 0.106621556 0.042352483 0.11390767
0001a0 0a 70 00 3e a4 07 b1 3e e0 65 b0 3d 2f 3e 70 3e
       0.1254274 0.34576142 0.08613181 0.23461221
0001b0 9e 37 09 3f d1 01 0f 3e b6 2a e4 3d 02 50 dc 3e
       0.5360049 0.13965537 0.11140959 0.4302979
0001c0 19 d7 be 3e da 50 1a 3e 50 98 0b 3e a6 23 db 3d
       0.3727348 0.15069905 0.13632321 0.10700159
0001d0 30 12 59 3d ca f5 83 3e e0 40 a2 3b f1 12 27 3d
       0.05299586 0.2577346 0.0049515814 0.04078955
0001e0 8b 3a 4b 3d df 0e 3e 3e 26 2c 30 3e c2 be 1f 3e
       0.049616378 0.1856036 0.17204341 0.15600112
0001f0 29 4d 88 3d c1 8c 28 3e b9 8f 62 39 74 e2 8d 3e
       0.06655342 0.16459943 0.0002160658 0.27711833

linear_1.w_0 f4 [128, 64]
000000 89 34 29 bf 5b 49 44 be ad a4 1c 3d 6c 43 93 bc
       -0.6609579 -0.19168608 0.038242985 -0.017976485
000010 d0 1f 09 bd 3c df e2 bd f7 52 ee 3b 62 2c 00 bd
       -0.033477604 -0.11077735 0.007273074 -0.031292327
000020 37 5d 00 3d 31 86 ca bd 0c 8e bc bd 99 fb be bd
       0.031338897 -0.09888876 -0.09206781 -0.09325332
000030 91 cf c2 bb a8 6c 81 be 04 5a c2 3d 43 2d 7c bd
       -0.005945154 -0.2527821 0.09489825 -0.061566602
000040 d4 54 87 3a 50 91 11 be 94 d8 be 3c 01 50 14 3e
       0.0010324963 -0.14215589 0.023296632 0.14483644
000050 6b 63 d0 bd 6d a1 03 bc 22 b3 3c 3c 69 6b 0c 3e
       -0.101752125 -0.008034092 0.011517318 0.13712849
000060 f7 a2 cd be f0 7c 20 3e ce 5a 5d bd ca 18 09 be
       -0.40163395 0.1567266 -0.054041676 -0.13388363
000070 e1 93 71 3d 6d ec 44 bc 30 6e 88 bd 60 d7 08 bf
       0.05897892 -0.012019259 -0.066616416 -0.53453636
000080 29 67 63 bb 41 7a 80 be 0d 32 71 be 40 d4 81 bd
       -0.003469894 -0.25093272 -0.23554249 -0.063393116
000090 b1 b7 7e 3b 47 91 20 be 1f fa 15 bd 2a 1b 1e bd
       0.0038866813 -0.15680419 -0.036615487 -0.038600124
0000a0 c5 42 8a be 81 4e c0 3c 80 a0 2b 3d 0e 91 13 3d
       -0.27004066 0.023474934 0.04190111 0.036027007
0000b0 a7 51 40 be d6 ed 85 3d 82 fd d5 bc cc a8 00 bd
       -0.18781148 0.06539504 -0.026121859 -0.031410977
0000c0 f9 be 36 3d 07 a5 1a 3e 7f 5e cb bc 6d b3 7e 3d
       0.04461572 0.15102015 -0.024825333 0.062182833
0000d0 d3 c0 8e bd 48 1d d6 3c af b2 2a bd 74 a6 e2 3c
       -0.06970372 0.02613701 -0.041674312 0.027667262
0000e0 d8 ae 37 3d c3 64 01 bd e9 16 20 be 0e 95 73 be
       0.04484448 -0.031590234 -0.1563374 -0.23787329
0000f0 ea 6c b5 3c 16 22 ad bd ae 3a 87 3c b4 13 43 3d
       0.02214666 -0.08453767 0.016507473 0.047626212
000100 0c 01 ab 3d c6 63 d0 3a ac 4a 42 be c8 c3 ca bd
       0.08349809 0.0015898875 -0.18973798 -0.099006236
000110 9a 03 99 bd 6a a4 1b 3d 3a 0d d2 3d 26 03 cd 3d
       -0.0747139 0.037998594 0.10256429 0.10010366
000120 20 94 05 be 1b 27 67 bd cb 3c e5 bb 3b 08 af 3d
       -0.13044786 -0.05643378 -0.0069957725 0.08546492
000130 3a 4e 24 bd d4 f5 c6 3d 3d a5 11 bc c8 2e 85 be
       -0.040113665 0.09714857 -0.0088894935 -0.26012254
000140 ea 28 54 be 79 00 96 3c d0 48 f6 3d d8 9d 84 3b
       -0.20718732 0.018310772 0.12025607 0.0040471368
000150 b0 3e bc bd 30 eb 8e bc cd ed b4 3c de 2b 34 be
       -0.09191644 -0.01744613 0.022086048 -0.17594859
000160 87 ae fe 3c 7c 60 dc bd f3 07 93 bc 20 c9 ed bc
       0.03108908 -0.107605904 -0.017948126 -0.029026568
000170 ac cc f8 3d 31 e5 6e 3d f3 6e 52 bd f9 8b bf bc
       0.12148413 0.058324043 -0.05137534 -0.023382174
000180 04 58 43 3d 3d dd ef bd 40 cb 5a 3d 52 25 eb 3c
       0.04769136 -0.1171212 0.05341649 0.02870432
000190 2d 3c ae bd 06 8d 34 bd 71 ab 24 be 33 c9 09 be
       -0.08507571 -0.044079803 -0.16081025 -0.13455658
0001a0 d7 15 cc bc 3c 7d d1 bb 8d cb 90 3d 64 69 9e be
       -0.024912758 -0.006393103 0.07070074 -0.30939782
0001b0 ea 2d f3 bc ce 9f 30 bf ed 41 f5 3c 97 1d a6 3d
       -0.02968498 -0.6899384 0.029938662 0.081111126
0001c0 af af 63 bd 2d 4b 09 bd 01 59 9a bc 56 dc 3e 3c
       -0.055587467 -0.03351896 -0.018841268 0.011649212
0001d0 77 de 04 bd 73 03 4e 3d 02 23 ad 3c 55 72 13 be
       -0.03243872 0.05029626 0.021134857 -0.14399083
0001e0 c9 e0 03 bf 19 f8 4a be 88 00 85 bd 83 3f d6 3c
       -0.5151487 -0.19821204 -0.06494242 0.026153332
0001f0 22 cf df 3c 42 de 27 3d 35 ae c7 be 8f 7b d1 bb
       0.027320448 0.040983446 -0.39000097 -0.006392903
000200 32 1a 74 3d a9 73 be bc 4e 14 ef bd 80 4b bb bd
       0.059595294 -0.02324851 -0.11673795 -0.0914526
000210 6a 5d 88 3c bd ec ae bd 44 f2 3e be 99 cc 21 bd
       0.016646106 -0.08541248 -0.18647105 -0.03950176
000220 4e 9c 2d 3d b0 57 bc bd b7 79 15 be 5a d8 ef 3d
       0.042385392 -0.091964126 -0.14597212 0.11711188
000230 01 37 37 be fe ef 95 be 00 45 c3 3c ef b9 10 bd
       -0.17892076 -0.29284662 0.023836613 -0.03533357
000240 28 12 1d bd 58 2b f5 bd da 15 6a bd 73 21 2f 3c
       -0.038347393 -0.11971158 -0.057149746 0.010689127
000250 f2 cc 4f be ac 87 96 bd cc cb 0e bd b3 d2 83 3c
       -0.20293024 -0.07350096 -0.034862325 0.01609168
000260 0a 3f e7 bc 01 98 0e bd 0d 02 57 bd bf 8b 2b be
       -0.028228302 -0.03481293 -0.05249219 -0.16752528
000270 8d 0e 86 3d a9 07 73 3d 06 b2 90 bd b1 34 69 be
       0.06545744 0.059333477 -0.07065205 -0.22774006
000280 e1 b5 b4 3c a5 7e 55 3c 6e 10 92 bc 95 7d e0 bd
       0.022059383 0.013030683 -0.0178301 -0.10961453
000290 b4 01 5a 3c 7e a2 d2 bd 54 66 4e bc 8b f5 8c bd
       0.01330607 -0.10284899 -0.012597639 -0.06882771
0002a0 b5 c8 ff bc 69 a9 91 bd 27 bc 2b bf 72 2d 34 bc
       -0.031223634 -0.071123905 -0.6708397 -0.010997163
0002b0 b0 b9 3f bd a1 e3 75 3d 4b 6e c9 bc 6c 62 03 bf
       -0.046807945 0.060031537 -0.024588725 -0.51322055
0002c0 43 51 d8 3d c3 ee 97 bc 20 6e 9a 3d 39 c9 1f bc
       0.105623744 -0.018546468 0.07540536 -0.009752565
0002d0 5e 07 90 bc cc 43 49 bd a1 83 25 bd ac 8c d2 3c
       -0.017581638 -0.04913692 -0.040408734 0.025701843
0002e0 fa 2e 4d bd 60 5d e2 bd 34 03 2b bd b3 fa 13 bd
       -0.05009363 -0.11052966 -0.0417511 -0.036127757
0002f0 86 84 51 3c 51 dd b4 3c c4 bf 03 3d 0a 01 13 bd
       0.012787944 0.022078188 0.032165304 -0.035889663
000300 dd d5 75 3c 10 20 f3 bd f4 89 46 be e6 d7 08 bd
       0.015004602 -0.1187135 -0.19388562 -0.03340902
000310 8f 6e 11 3d c4 2a 95 be 53 1e fb be a0 4d 58 3c
       0.035505828 -0.2913419 -0.49046573 0.013202101
000320 5b a4 60 3c 63 8e c3 be ad b6 64 3d ec 9b cd 3d
       0.01371106 -0.3819457 0.055838276 0.10039505
000330 71 1b e3 3c 37 57 4a 39 b5 91 14 3e 5e 32 64 3c
       0.027723046 0.00019296711 0.14508708 0.013928024
000340 d0 64 6b 3d 6a 82 75 be f9 3b 76 be c4 68 20 bc
       0.05746919 -0.2397553 -0.24046315 -0.009790603
000350 49 14 4e be 63 d7 90 bd 82 fa d6 ba 68 23 b2 3d
       -0.20124926 -0.07072332 -0.0016401561 0.086981595
000360 f2 c9 71 3d 3d 27 9c bd 93 11 92 3d 50 94 a4 be
       0.05903048 -0.076246716 0.07132258 -0.32144403
000370 91 5a e4 3d fa 4a bb 3e f4 8a 05 be 3f 3a a0 3d
       0.11150087 0.3658064 -0.13041288 0.078236096
000380 55 d5 aa bb 7e 9e be bd 17 c1 01 bd e0 74 57 be
       -0.0052134194 -0.09307574 -0.031678285 -0.21040678
000390 8c 45 0b 3c e4 40 83 3e 1c 21 07 3a 42 ea 43 bd
       0.008500468 0.25635445 0.0005154775 -0.047830828
0003a0 b9 6f 00 be 5d 77 f8 bd 6e b3 65 3d 38 b7 22 bd
       -0.12542619 -0.12132142 0.05607932 -0.039725512
0003b0 bd 9c 35 be 5e e7 26 bd be f3 2b bd 41 df 73 3d
       -0.17735572 -0.040747993 -0.041980498 0.059539083
0003c0 e6 11 93 3b 2e 7d 0d bd 6e 11 d3 3b af 94 6b bd
       0.0044882176 -0.03454321 0.0064412868 -0.057514843
0003d0 84 ff e1 3c 33 46 c9 3d 16 10 d8 bd b5 e4 15 3e
       0.02758766 0.098278426 -0.10549943 0.14638026
0003e0 4c 8a 82 bd 34 42 5f be ce 52 24 bd 94 a1 91 bc
       -0.06374034 -0.21802598 -0.04011803 -0.017777242
0003f0 ee 14 22 3d 45 43 ce 3c 8e ae c2 bd aa 4f 4e bc
       0.03957074 0.025178561 -0.0950595 -0.012592236

linear_1.b_0 f4 [64]
000000 05 e3 85 3b ac 2e cd 3a 92 ee ea bb 5e 6e 46 bb
       0.0040859007 0.0015654168 -0.007169553 -0.0030278186
000010 42 da 0f 3b 6b 48 89 3a 24 78 94 bb 50 aa 9a bb
       0.002195016 0.0010473853 -0.0045309234 -0.00472001
000020 b1 69 68 bb bd f6 65 3b 2b ec 8e 3b 14 8c aa b8
       -0.0035463388 0.0035089694 0.0043616495 -8.132323e-05
000030 a0 74 b1 3b 18 9a 48 3c 25 cb 1a bb 29 5a f0 bb
       0.005415514 0.01224377 -0.0023619619 -0.0073349667
000040 d3 98 b2 bb b0 71 12 bc 36 f1 fc b9 91 c1 9d bb
       -0.005450347 -0.008938238 -0.00048244902 -0.0048143347
000050 39 3a 5a bb ba 24 ad 3b 8f 10 5b bb ad 00 98 bb
       -0.0033298864 0.005283919 -0.0033426618 -0.0046387524
000060 54 d5 a3 ba 43 12 52 3b ce e9 c6 3a 3e 6c 0e 39
       -0.001249949 0.0032054342 0.001517588 0.00013582499
000070 ee 3d a6 3b ea 63 10 3b 9a b6 80 bb c6 ff 6e 3b
       0.0050733006 0.002203221 -0.003928018 0.003646837
000080 ca 64 0a bb 3d 3a 7a 3c 19 36 6e 3b 67 e0 7d bc
       -0.0021117204 0.015272674 0.0036348163 -0.015495396
000090 13 46 9f 3b 8b 5e 61 3b 41 47 36 3a dd 78 c9 3b
       0.0048606484 0.0034388627 0.00069533667 0.006148441
0000a0 48 8a 85 bc 88 29 f6 3a f5 64 5f 3b 95 f6 ba bb
       -0.01630129 0.0018780688 0.0034087275 -0.0057056644
0000b0 cd bf 8c 3b 2f 67 f6 3a 9a 0a a0 bb 00 f9 0b 3c
       0.0042953254 0.0018799062 -0.0048840763 0.008543253
0000c0 65 61 a2 39 7a ea 14 3c ac 77 34 3c f9 ea c2 bb
       0.00030971612 0.009089107 0.01101486 -0.005948421
0000d0 98 8f 89 3b 4f 86 59 bb 57 d6 0b 3c ef 84 11 3c
       0.004198026 -0.0033191626 0.008534989 0.0088817915
0000e0 cb 06 03 bb 2c cf ae 3b be 5e 8b 39 f4 c3 0a bc
       -0.0019993063 0.0053347554 0.00026582734 -0.00846957
0000f0 81 7f 35 3b 76 54 3d ba 75 12 6a bc 0e 9f 45 bb
       0.0027694406 -0.00072223635 -0.014286627 -0.0030154618

batch_norm1d_1.w_0 f4 [64]
000000 3f 8e 80 3f 0d 55 8d 3f 76 7a 90 3f 4c 6c 89 3f
       1.004341 1.104158 1.1287372 1.0736175
000010 4b 4e 8b 3f 21 4e 82 3f 98 78 7d 3f d2 20 6d 3f
       1.0883268 1.0180093 0.99012136 0.92628205
000020 e4 fd 86 3f 3b c1 81 3f c8 b8 92 3f 6c b5 7e 3f
       1.0546231 1.0137094 1.1462641 0.9949558
000030 d4 c2 95 3f 0e 68 98 3f 6b 24 82 3f 47 a0 ac 3f
       1.1700082 1.1906755 1.0167364 1.3486413
000040 7c db 6e 3f 6d 8e 97 3f d5 7a 82 3f f2 66 87 3f
       0.93303657 1.184034 1.0193735 1.0578291
000050 fb 96 8c 3f e7 f6 99 3f f0 9b 80 3f ff 00 69 3f
       1.0983576 1.2028474 1.0047588 0.91017145
000060 b3 48 7d 3f 70 57 72 3f 7a 3e 85 3f 7c df 80 3f
       0.98939055 0.9466467 1.0409691 1.0068202
000070 ea 86 5b 3f d0 86 7f 3f 4f 74 a8 3f 5e 3f 90 3f
       0.8575274 0.9981508 1.3160495 1.1269338
000080 c4 28 93 3f 96 e3 75 3f d0 86 6a 3f e9 15 a1 3f
       1.1496816 0.96050394 0.9161196 1.2584811
000090 99 c2 92 3f 2a 93 96 3f 39 f9 84 3f 76 a6 71 3f
       1.1465636 1.1763661 1.0388557 0.94394624
0000a0 a0 f0 7d 3f b9 89 84 3f c4 6b 8f 3f 6a ce 7b 3f
       0.9919529 1.035453 1.1204762 0.9836184
0000b0 98 ce 71 3f e9 e5 9f 3f 73 e3 97 3f 4a 61 a2 3f
       0.9445586 1.2492038 1.1866287 1.268594
0000c0 97 45 95 3f f0 48 a2 3f 58 c6 91 3f b2 67 72 3f
       1.1661862 1.2678509 1.1388655 0.94689476
0000d0 a5 21 91 3f 11 07 6b 3f 2e 89 84 3f c3 85 69 3f
       1.1338392 0.9180766 1.0354364 0.9121973
0000e0 b3 b1 80 3f 12 80 84 3f 2f 73 73 3f d9 cd 83 3f
       1.005423 1.0351584 0.9509763 1.0297195
0000f0 9d 81 92 3f fd dd 80 3f 20 d0 9d 3f bd 34 b0 3f
       1.1445805 1.0067745 1.232914 1.3766094

batch_norm1d_1.b_0 f4 [64]
000000 aa 3d 77 be 36 b5 3b 3d b5 00 1e be 7b 4f b3 be
       -0.24144617 0.045827113 -0.15429957 -0.35021576
000010 41 f6 1a be e4 e1 6e be bc 03 79 bd 94 0f 92 bd
       -0.15133001 -0.23328358 -0.060794577 -0.071318775
000020 f1 4d 87 be 75 78 11 be f3 cb 45 be d2 84 8a be
       -0.26426652 -0.14206107 -0.19316082 -0.2705446
000030 de df bb be 63 a1 94 be 5f d9 88 bb d0 c8 6e be
       -0.36694235 -0.29029378 -0.0041763033 -0.23318791
000040 13 58 fe bd c0 69 48 bd 0e ff bd bd 7a 92 48 be
       -0.124191426 -0.048928976 -0.092771634 -0.19587126
000050 d5 4e dd 3d ec 4f b8 bb 83 ae e6 bd 4d b6 4e be
       0.10806052 -0.005624762 -0.11263754 -0.2018673
000060 30 d3 0f be 69 1e 2a bf 57 5a 03 bf d8 3e 53 be
       -0.14045405 -0.6645265 -0.5130972 -0.20629442
000070 4e f6 40 3b 83 f1 42 3b 85 7e 2b bd 2c 18 33 be
       0.0029443684 0.0029746003 -0.041868705 -0.1748969
000080 d7 19 dc 3c 4c 64 16 3e 25 92 08 3d b8 06 f0 bd
       0.02686779 0.14686698 0.0333425 -0.117200315
000090 2d 6b 2b bd 03 7c 2b be db 91 4e bd af 8e b9 be
       -0.041850258 -0.16746525 -0.050432067 -0.3624167
0000a0 21 d9 20 be a5 af 28 be e8 7c f2 be 86 08 ba bd
       -0.15707828 -0.16473253 -0.4736092 -0.09083657
0000b0 9a 59 75 be c6 df cb be 6a 3e 8a 3b d2 86 f7 be
       -0.23959962 -0.39819163 0.004218866 -0.48345047
0000c0 49 48 8d 3e 8b 8f ce 3d 31 f1 51 3e b8 88 e3 3c
       0.27594212 0.100859724 0.20502163 0.027775154
0000d0 90 2b b5 bd ef 80 f3 bd 2c 54 40 be 31 2c 36 3d
       -0.088461995 -0.118898265 -0.18782109 0.044475738
0000e0 cc b9 63 be 16 39 ed bd 00 05 cd be b9 4e 2c be
       -0.22238845 -0.11583154 -0.40042877 -0.16826905
0000f0 c9 98 8d be 2e 78 3e be 46 8a da be 6d 2d 39 bd
       -0.27655628 -0.18600532 -0.4268362 -0.045209337

batch_norm1d_1.w_1 f4 [64]
000000 c4 3d 94 bf f0 18 d2 bf fa fd 18 c0 e5 5c 19 c0
       -1.1581349 -1.641386 -2.3905015 -2.3962948
000010 13 09 b8 bf fe 21 e4 bf b2 de 02 c0 32 07 cb bf
       -1.4377769 -1.7822874 -2.0448422 -1.5861571
000020 d3 27 f4 bf ca f2 f8 bf 53 41 3a bf 73 e1 1e 40
       -1.9074653 -1.9449093 -0.72755927 2.4825103
000030 b0 76 14 c0 ac 1c c9 bf 64 ee 08 3f 8f 4a b2 bf
       -2.319744 -1.5711875 0.53488755 -1.3929003
000040 6f b1 f8 bf b3 4d 77 bf 5a 8d 6b bf 8a 3e 90 3f
       -1.9429148 -0.96602935 -0.9201256 1.1269085
000050 31 be 6a be 50 cf 71 be d6 77 a2 bf 52 26 85 bf
       -0.22924115 -0.2361424 -1.2692821 -1.040232
000060 58 73 d5 bf 60 0d a3 3f f2 35 c3 3f 07 31 eb bf
       -1.6675825 1.2738457 1.5250838 -1.8374337
000070 b7 2c 47 40 ad 12 0d 40 f5 61 f4 be e5 6f e4 bf
       3.1121042 2.2042649 -0.47730985 -1.7846648
000080 27 ed 0c bf 0a 06 83 3d 33 91 d7 3e 75 58 37 bf
       -0.55049366 0.06397636 0.42102966 -0.7161935
000090 14 95 c3 bf c1 ea 8b bf a5 78 35 3e d8 44 86 bf
       -1.527987 -1.0931016 0.17721803 -1.048976
0000a0 9c 60 38 bf 04 6f d1 bf 30 d9 94 bf 81 3e 85 bf
       -0.72022414 -1.6362004 -1.162878 -1.04097
0000b0 98 d7 54 be e0 51 ce bf f8 e3 c0 be 30 fe 4b bf
       -0.20785367 -1.6118736 -0.37673926 -0.79684734
0000c0 5e 1b 9c 3e df 30 73 bd 92 13 21 3e 5b 58 a7 bf
       0.3048963 -0.05937278 0.15730122 -1.3073839
0000d0 83 1d 07 c0 ce 2d ce be e4 f3 b9 bf 70 1e a6 3e
       -2.1111763 -0.4026932 -1.4527555 0.32445097
0000e0 d4 a2 da bf 92 91 07 c0 ec 02 0e c0 05 5d 7c bf
       -1.7080941 -2.11826 -2.2189283 -0.98579437
0000f0 38 2f 8b be a6 9d 7f bf 40 29 06 c0 50 1b 00 be
       -0.27184463 -0.9984993 -2.0962677 -0.12510419

batch_norm1d_1.w_2 f4 [64]
000000 2a 15 a2 40 cb 9f 00 41 59 c6 a1 40 e7 82 92 40
       5.0650835 8.039012 5.0554624 4.5784793
000010 a0 be 3f 40 71 76 5d 40 5c 6e 96 40 68 c3 9b 40
       2.9960098 3.460354 4.7009716 4.8676033
000020 59 e3 66 40 ec 43 69 40 f6 5c b3 40 1e 29 60 40
       3.6076262 3.6447706 5.605098 3.5025096
000030 21 d1 ee 40 df 82 f6 40 70 8f 6e 40 ae d1 eb 40
       7.4630284 7.7034755 3.7275047 7.3693457
000040 e6 61 ad 40 1c 98 3e 40 2a d3 9d 40 91 d2 ef 3f
       5.4182005 2.978034 4.932027 1.8736135
000050 a6 8e b4 40 10 23 80 40 b1 c2 80 40 50 75 8d 40
       5.642413 4.00428 4.023766 4.4205704
000060 ce e1 b5 40 c9 4b 10 40 0e 2d f8 3f 8b 28 9a 40
       5.683814 2.2546256 1.938875 4.817449
000070 0a 14 a2 40 02 16 68 40 7c da 11 40 3a 69 d0 40
       5.064946 3.6263433 2.2789602 6.512845
000080 1c ea a8 40 9a ad 3f 40 de b8 07 40 77 fe 95 40
       5.278578 2.9949708 2.1206584 4.6873126
000090 3b 3e 82 40 a2 1f 99 40 78 1d 3b 40 ad 0d 86 40
       4.0700965 4.7851114 2.9236736 4.1891694
0000a0 bb fe 27 40 5a c8 a8 40 f9 dd 19 41 9b 40 a8 40
       2.6249225 5.274457 9.616693 5.2578864
0000b0 c3 da d6 3f d7 26 9c 41 03 af 7d 40 ca de da 40
       1.6785511 19.518965 3.9638069 6.839696
0000c0 5d 92 38 40 8d 73 7a 40 e0 17 d3 40 94 14 4f 40
       2.8839333 3.9133027 6.5966644 3.235631
0000d0 15 f0 83 40 fa e5 32 40 f4 ce 9a 40 4f 57 43 40
       4.123057 2.7952867 4.837763 3.052204
0000e0 12 72 f0 40 7e 71 99 40 57 00 7a 40 b8 44 78 40
       7.5139246 4.795104 3.9062707 3.8791943
0000f0 fc 1d 75 40 6b 4f 30 40 76 a8 69 41 c5 43 3f 40
       3.829955 2.7548473 14.603628 2.9885113

linear_2.w_0 f4 [64, 32]
000000 8b d7 12 bd 27 60 96 be f3 d8 df 3d e4 16 6a bd
       -0.03585009 -0.29370233 0.10930052 -0.057150736
000010 97 30 db 3a 62 ab 84 bd fd 22 89 bd b4 db 94 3d
       0.0016722855 -0.06478001 -0.066961266 0.072684675
000020 cd c4 01 bd 4c fd 8c bc 19 ba 38 bf 61 35 50 3d
       -0.031681824 -0.017210625 -0.7215896 0.050832156
000030 62 cf 0f 3e dd f9 8f 3d ef 95 47 3e d6 b3 96 3c
       0.14043954 0.070300795 0.19490789 0.0183963
000040 dc 21 19 be 32 b7 40 3e 01 6c 80 bb ba 87 15 be
       -0.14954323 0.18819883 -0.003919125 -0.14602557
000050 36 d2 7e be b4 ae 06 bf 44 4c 39 3e 31 b4 84 3d
       -0.24884877 -0.52610326 0.180955 0.06479681
000060 ee ec b5 bd 09 8a e4 be 0d 6f 01 3e 47 b1 42 bc
       -0.088830814 -0.44636562 0.12640019 -0.0118830865
000070 5b 7e 08 ba 3d 94 e8 3c 7c f3 28 bf 9e 27 1c 3e
       -0.0005206817 0.028390998 -0.6599653 0.15249488
000080 b6 a7 e6 3c 80 ff c4 bd 8c 5b 87 bd 9a 2f a4 bb
       0.028156143 -0.09619045 -0.06609258 -0.0050105574
000090 93 86 33 3c 53 1e 90 3e 19 05 9b bd 39 82 27 be
       0.010957378 0.28148136 -0.07569332 -0.1635827
0000a0 b8 1f a1 bd 9a 88 f7 3d bf 1f a2 be e6 b5 90 3e
       -0.07867378 0.120866016 -0.31664845 0.28263777
0000b0 40 48 5a be 72 a3 b9 be a4 f1 ba 3d 66 dd 04 be
       -0.21316624 -0.3625751 0.091281205 -0.12975082
0000c0 47 0d ae 3c 91 50 21 bf 15 01 8b 3d 8c 68 97 3e
       0.021246566 -0.6301356 0.06787316 0.2957195
0000d0 2a a3 1d 3d 15 10 af be 07 d2 80 3d 99 4e 5d bc
       0.038485684 -0.34191957 0.062900595 -0.013507509
0000e0 4b 0d 09 3e ab bb e9 be ea 94 99 3d 42 75 57 bc
       0.13383977 -0.45650992 0.07499106 -0.013150515
0000f0 28 cf 3c 3d 33 89 1f bd c1 41 6b 3d fc 47 8e 3d
       0.046095997 -0.038949203 0.057435755 0.06947324
000100 d2 ec 21 be 9e 04 23 be c7 41 0f 3e e4 c6 04 3e
       -0.15812996 -0.1591973 0.13989936 0.12966496
000110 6d f8 25 be 8c 0f 21 bd 9e 19 76 3e ca 6b 30 be
       -0.16208048 -0.039321467 0.2403321 -0.17228618
000120 7d db 8c 3e 21 cc 63 3e e4 50 d2 bd 3e 7b 61 3e
       0.27511206 0.22245838 -0.10269335 0.2201967
000130 c7 78 25 3e 4b 70 f1 be 82 72 00 3e 38 cc 44 bd
       0.16159354 -0.47155985 0.12543681 -0.04804632
000140 72 41 a7 3d 43 0d 5e be 33 07 16 3d e8 d9 7c 3e
       0.081667796 -0.21684746 0.03662796 0.246925
000150 a9 58 8d 3d ce 82 95 bd 3e d2 a0 3d d3 11 2a bf
       0.06901676 -0.0730034 0.078526005 -0.6643345
000160 88 91 55 3e ea dd 25 3e 40 43 4f 3d 51 5a 18 3e
       0.20856297 0.16197935 0.050601244 0.14878203
000170 5c 02 7d 3d 72 8c 88 3c 55 2f 59 be 78 fc 89 bc
       0.06176983 0.016668532 -0.21209462 -0.01684402
000180 e9 c7 f3 bd 52 47 e2 be 47 d1 1b 3c 65 d6 fa 3d
       -0.11903364 -0.44195038 0.009510345 0.12247924
000190 81 09 55 be 45 23 23 3a e5 a5 9b 3e 42 f9 cb 3d
       -0.20804407 0.0006223212 0.30400005 0.099596515
0001a0 43 d2 a4 3c 62 13 8d 3e 6c 39 75 3e c5 59 10 3e
       0.020119792 0.2755385 0.23947686 0.14096744
0001b0 03 de f1 3d ad 59 be bd d5 d0 17 3e 76 2c 52 3d
       0.118099235 -0.09294448 0.14825757 0.051311933
0001c0 cc d9 56 3e 65 30 24 3d 30 f6 ba bd 2a 76 f3 bd
       0.2098152 0.040085215 -0.09128988 -0.118877724
0001d0 79 3a 09 3d 7d eb 79 bc 55 c4 ff 3d a5 21 1e be
       0.03350303 -0.015253899 0.12488619 -0.15442522
0001e0 d9 b1 14 be b8 78 04 3b 0b 91 a9 3e ee 91 9d 3e
       -0.14520968 0.0020213556 0.33118472 0.30775398
0001f0 d6 6a 70 bd 8a 3a 64 3e 02 7a 4a be 3f 47 e5 be
       -0.058695637 0.22287956 -0.19773105 -0.4478092
000200 00 5a 2e 3b 1b aa 3f 3e 65 e2 5a bc d8 a6 e6 3d
       0.0026603937 0.18717234 -0.013359641 0.11262292
000210 a0 ef da bd 83 f4 89 bb ca c4 fd bd 9e 16 b5 3e
       -0.10690236 -0.0042100563 -0.1239105 0.35368818
000220 06 e8 37 3e 9d 6a c0 bd ed e0 d4 3d a0 18 ed 3d
       0.17959604 -0.09395335 0.10394464 0.115769625
000230 ce b1 35 3e 15 b4 23 3b 4d 75 ea 3d be 01 f4 3d
       0.17743608 0.0024979163 0.114481546 0.11914395
000240 54 69 b6 3d e5 2b 6d be e7 61 83 3d 43 4a 97 3e
       0.089068085 -0.23161276 0.06415158 0.29548845
000250 f1 3b 69 3e 48 7b 43 3e 2a 6e 4b 3e a2 81 ed be
       0.22776772 0.19089997 0.19866243 -0.46387964
000260 77 a1 57 bc a1 68 af bd ba 46 cc 3c a7 6f 24 3d
       -0.013161055 -0.08564878 0.024936069 0.040145542
000270 26 be 2a 3d 05 92 89 3d d7 70 d8 be f3 16 9d 3d
       0.041685246 0.06717304 -0.4227359 0.07670393
000280 71 82 46 bd 62 fb 09 bf 42 08 b9 3d be 81 f2 3d
       -0.048464242 -0.53899205 0.09034778 0.118411526
000290 c3 35 60 be 04 9c f3 3d 5b 84 31 3e 05 4e 1f be
       -0.21895508 0.11894992 0.17335646 -0.15557106
0002a0 16 7f 33 3e 80 01 4d 3e 21 14 b5 3d a5 1d 22 3e
       0.17528948 0.20020103 0.0884173 0.15831621
0002b0 4e d5 00 bd 8b 1d 42 bf c1 4c 9e 3d 1d 84 6e be
       -0.031453423 -0.7582633 0.077294834 -0.23292585
0002c0 89 7c f7 3d a5 0e a3 be 27 bc f4 bd cf 2f b5 3d
       0.120843 -0.3184711 -0.1194995 0.088470094
0002d0 19 eb 1b be 0f 8a 97 3c 78 7b 93 3d 02 47 0f bf
       -0.15226401 0.018498449 0.07201284 -0.55967724
0002e0 1b c6 f1 3c 39 00 2d be 36 c7 88 bc 70 2b 02 3e
       0.02951341 -0.16894616 -0.016696554 0.12711883
0002f0 4e bf 91 3d 47 b2 9c bd 9c 46 e0 3d cb dd 33 be
       0.071165666 -0.07651191 0.10950968 -0.17565076
000300 25 4c c3 bd 9b ca 53 3d 33 8e ff bd 2c bd e6 3b
       -0.09536008 0.05170689 -0.12478294 0.007041594
000310 25 e0 cf be 50 42 c5 3d 71 63 0d 3f f3 8a cf 3d
       -0.40600696 0.09631789 0.5522986 0.10133924
000320 f1 d2 96 3e a4 f6 d1 3d 44 36 97 3e bb 69 9f bd
       0.2945781 0.10252121 0.2953359 -0.07783838
000330 74 db 19 3e 45 78 ad be 46 63 4a 3e de 91 83 be
       0.15025121 -0.3388082 0.19764432 -0.25697225
000340 da 87 df bc 37 23 b9 be 74 e6 d0 3d c5 02 3d be
       -0.027286459 -0.3615968 0.102002054 -0.18458088
000350 e2 69 9c 3d 67 9f 98 3d bc f6 f9 3d 40 3f dd be
       0.07637383 0.074522786 0.12205264 -0.43212318
000360 05 6d de 3d d2 f4 11 3c 18 5f 47 be ea e3 6e 3e
       0.108606376 0.008908467 -0.19469869 0.2332913
000370 be a0 6f bc 47 60 21 be 9b ea f0 3d 64 95 b7 3c
       -0.014625726 -0.15759383 0.117634974 0.022410102
000380 1e 6d 58 bb 0f b8 e9 bc 44 5a da bc 15 09 b7 3d
       -0.0033024023 -0.028530149 -0.02665437 0.08937279
000390 82 30 b4 3d 9a 43 8a 3e bd 2a f3 3d 3a cf f1 3d
       0.08798315 0.270047 0.11873386 0.118071035
0003a0 1f 69 e4 3d 73 53 2b 3c 02 42 50 be fc af b3 3c
       0.11152863 0.010456908 -0.2033768 0.021934502
0003b0 0d 62 5f be d8 bf 4d bc d7 36 d9 3d 38 0a bb 3b
       -0.21814747 -0.012557946 0.10606163 0.0057080053
0003c0 07 62 ac 3d 5a 36 2b be ca 0c c2 3c a1 d4 4e 3d
       0.08417135 -0.16719952 0.023687739 0.050495747
0003d0 19 96 0b bd c6 3f ab be 36 db 49 bc 23 93 4e 3e
       -0.03407869 -0.33447093 -0.01232033 0.20173316
0003e0 60 09 b7 3d 5f 58 da be 15 72 14 3e ea 88 28 3e
       0.08937335 -0.42645547 0.14496644 0.16458479
0003f0 49 62 56 be c7 d5 b4 3d 83 9c af be f8 dd 23 bd
       -0.2093593 0.08829837 -0.34299096 -0.040006608

linear_2.b_0 f4 [32]
000000 03 43 00 3f f8 78 77 be 97 b5 14 3f d3 74 05 3f
       0.5010225 -0.2416724 0.58089584 0.52131385
000010 68 0f dd 3e b6 57 36 3f 88 a7 12 3e 8c 3e 27 3f
       0.43175817 0.71227586 0.1432172 0.65329814
000020 b5 ea be 3e 4e 33 08 3f 09 d1 7d 3e b8 5d e3 3e
       0.37288442 0.53203285 0.24786772 0.4440744
000030 04 3e 09 3f 86 b9 dc 3e 93 28 37 3e 02 d5 11 3f
       0.53610253 0.43110293 0.17886572 0.5696565
000040 c8 cf 5a 3f 7f c4 24 3d d2 d9 98 3e d3 28 a6 3e
       0.854733 0.040226456 0.29853684 0.3245302
000050 bb e9 64 3e ce 9a 37 3f fe bc e4 3e 6e 66 39 3f
       0.22354786 0.7172059 0.4467544 0.7242192
000060 56 0a 5a 3f 09 38 3f 3f c3 02 fd 3d 5e 5a 9d 3c
       0.8517202 0.7469488 0.123540424 0.01920813
000070 4d 12 1a 3f 35 cd 38 3f e1 a9 07 3f 05 2a f7 be
       0.60184175 0.7218812 0.5299359 -0.48274246
